{"class_name": "Model", "config": {"name": "model_33", "layers": [{"name": "input_14", "class_name": "InputLayer", "config": {"batch_input_shape": [null, 784], "dtype": "float32", "sparse": false, "name": "input_14"}, "inbound_nodes": []}, {"name": "dense_61", "class_name": "Dense", "config": {"name": "dense_61", "trainable": true, "units": 256, "activation": "relu", "use_bias": true, "kernel_initializer": {"class_name": "VarianceScaling", "config": {"scale": 1.0, "mode": "fan_avg", "distribution": "uniform", "seed": null}}, "bias_initializer": {"class_name": "Zeros", "config": {}}, "kernel_regularizer": null, "bias_regularizer": null, "activity_regularizer": null, "kernel_constraint": null, "bias_constraint": null}, "inbound_nodes": [[["input_14", 0, 0, {}]], [["input_14", 0, 0, {}]]]}, {"name": "dense_62", "class_name": "Dense", "config": {"name": "dense_62", "trainable": true, "units": 2, "activation": "linear", "use_bias": true, "kernel_initializer": {"class_name": "VarianceScaling", "config": {"scale": 1.0, "mode": "fan_avg", "distribution": "uniform", "seed": null}}, "bias_initializer": {"class_name": "Zeros", "config": {}}, "kernel_regularizer": null, "bias_regularizer": null, "activity_regularizer": null, "kernel_constraint": null, "bias_constraint": null}, "inbound_nodes": [[["dense_61", 0, 0, {}]]]}, {"name": "dense_63", "class_name": "Dense", "config": {"name": "dense_63", "trainable": true, "units": 2, "activation": "linear", "use_bias": true, "kernel_initializer": {"class_name": "VarianceScaling", "config": {"scale": 1.0, "mode": "fan_avg", "distribution": "uniform", "seed": null}}, "bias_initializer": {"class_name": "Zeros", "config": {}}, "kernel_regularizer": null, "bias_regularizer": null, "activity_regularizer": null, "kernel_constraint": null, "bias_constraint": null}, "inbound_nodes": [[["dense_61", 1, 0, {}]]]}, {"name": "lambda_9", "class_name": "Lambda", "config": {"name": "lambda_9", "trainable": true, "function": ["4wEAAAAAAAAABAAAAAUAAABDAAAAcy4AAAB8AFwCfQF9AnQAagFkAWQCZANkBI0DfQN8AXQAoAJ8\nAmQFGwChAXwDFAAXAFMAKQZOKQHpAgAAAGcAAAAAAAAAAOkBAAAAKQPaBXNoYXBl2gRtZWFu2gZz\ndGRkZXZyAQAAACkD2gFL2g1yYW5kb21fbm9ybWFs2gNleHApBNoEYXJnc9oGel9tZWFu2gl6X2xv\nZ192YXLaB2Vwc2lsb26pAHINAAAA+iA8aXB5dGhvbi1pbnB1dC0xMjUtM2Q2YTQyNWQ5YWM0PtoI\nc2FtcGxpbmcBAAAAcwYAAAAAAQgBEAE=\n", null, null], "function_type": "lambda", "output_shape": [2], "output_shape_type": "raw", "arguments": {}}, "inbound_nodes": [[["dense_62", 0, 0, {}], ["dense_63", 0, 0, {}]]]}, {"name": "dense_64", "class_name": "Dense", "config": {"name": "dense_64", "trainable": true, "units": 256, "activation": "relu", "use_bias": true, "kernel_initializer": {"class_name": "VarianceScaling", "config": {"scale": 1.0, "mode": "fan_avg", "distribution": "uniform", "seed": null}}, "bias_initializer": {"class_name": "Zeros", "config": {}}, "kernel_regularizer": null, "bias_regularizer": null, "activity_regularizer": null, "kernel_constraint": null, "bias_constraint": null}, "inbound_nodes": [[["lambda_9", 0, 0, {}]]]}, {"name": "dense_65", "class_name": "Dense", "config": {"name": "dense_65", "trainable": true, "units": 784, "activation": "relu", "use_bias": true, "kernel_initializer": {"class_name": "VarianceScaling", "config": {"scale": 1.0, "mode": "fan_avg", "distribution": "uniform", "seed": null}}, "bias_initializer": {"class_name": "Zeros", "config": {}}, "kernel_regularizer": null, "bias_regularizer": null, "activity_regularizer": null, "kernel_constraint": null, "bias_constraint": null}, "inbound_nodes": [[["dense_64", 0, 0, {}]]]}], "input_layers": [["input_14", 0, 0]], "output_layers": [["dense_65", 0, 0]]}, "keras_version": "2.2.4", "backend": "tensorflow"}