{"class_name": "Model", "config": {"name": "model_9", "layers": [{"name": "input_1", "class_name": "InputLayer", "config": {"batch_input_shape": [null, 28, 28, 1], "dtype": "float32", "sparse": false, "name": "input_1"}, "inbound_nodes": []}, {"name": "conv2d_82", "class_name": "Conv2D", "config": {"name": "conv2d_82", "trainable": true, "batch_input_shape": [null, 28, 28, 1], "dtype": "float32", "filters": 2, "kernel_size": [2, 4], "strides": [1, 1], "padding": "same", "data_format": "channels_last", "dilation_rate": [1, 1], "activation": "relu", "use_bias": true, "kernel_initializer": {"class_name": "VarianceScaling", "config": {"scale": 1.0, "mode": "fan_avg", "distribution": "uniform", "seed": null}}, "bias_initializer": {"class_name": "Zeros", "config": {}}, "kernel_regularizer": null, "bias_regularizer": null, "activity_regularizer": null, "kernel_constraint": null, "bias_constraint": null}, "inbound_nodes": [[["input_1", 0, 0, {}]]]}, {"name": "conv2d_83", "class_name": "Conv2D", "config": {"name": "conv2d_83", "trainable": true, "batch_input_shape": [null, 28, 28, 1], "dtype": "float32", "filters": 2, "kernel_size": [4, 2], "strides": [1, 1], "padding": "same", "data_format": "channels_last", "dilation_rate": [1, 1], "activation": "relu", "use_bias": true, "kernel_initializer": {"class_name": "VarianceScaling", "config": {"scale": 1.0, "mode": "fan_avg", "distribution": "uniform", "seed": null}}, "bias_initializer": {"class_name": "Zeros", "config": {}}, "kernel_regularizer": null, "bias_regularizer": null, "activity_regularizer": null, "kernel_constraint": null, "bias_constraint": null}, "inbound_nodes": [[["input_1", 0, 0, {}]]]}, {"name": "conv2d_84", "class_name": "Conv2D", "config": {"name": "conv2d_84", "trainable": true, "batch_input_shape": [null, 28, 28, 1], "dtype": "float32", "filters": 2, "kernel_size": [3, 3], "strides": [1, 1], "padding": "same", "data_format": "channels_last", "dilation_rate": [1, 1], "activation": "relu", "use_bias": true, "kernel_initializer": {"class_name": "VarianceScaling", "config": {"scale": 1.0, "mode": "fan_avg", "distribution": "uniform", "seed": null}}, "bias_initializer": {"class_name": "Zeros", "config": {}}, "kernel_regularizer": null, "bias_regularizer": null, "activity_regularizer": null, "kernel_constraint": null, "bias_constraint": null}, "inbound_nodes": [[["input_1", 0, 0, {}]]]}, {"name": "concatenate_22", "class_name": "Concatenate", "config": {"name": "concatenate_22", "trainable": true, "axis": -1}, "inbound_nodes": [[["conv2d_82", 0, 0, {}], ["conv2d_83", 0, 0, {}], ["conv2d_84", 0, 0, {}]]]}, {"name": "max_pooling2d_28", "class_name": "MaxPooling2D", "config": {"name": "max_pooling2d_28", "trainable": true, "pool_size": [2, 2], "padding": "valid", "strides": [2, 2], "data_format": "channels_last"}, "inbound_nodes": [[["concatenate_22", 0, 0, {}]]]}, {"name": "lambda_1", "class_name": "Lambda", "config": {"name": "lambda_1", "trainable": true, "function": ["4wEAAAAAAAAAAQAAAAUAAABDAAAAcxgAAAB8AHQAoAF8AKEBdACgAnwAoQEYABsAUwApAU4pA9oB\nS9oDbWF42gNtaW4pAdoGaW5wdXRzqQByBQAAAPoePGlweXRob24taW5wdXQtNi0xNTQ1OTc1NjIx\nNWQ+2gpOT1JNQUxJWkVEAQAAAHMCAAAAAAE=\n", null, null], "function_type": "lambda", "output_shape": null, "output_shape_type": "raw", "arguments": {}}, "inbound_nodes": [[["max_pooling2d_28", 0, 0, {}]]]}, {"name": "conv2d_85", "class_name": "Conv2D", "config": {"name": "conv2d_85", "trainable": true, "filters": 4, "kernel_size": [2, 4], "strides": [1, 1], "padding": "same", "data_format": "channels_last", "dilation_rate": [1, 1], "activation": "relu", "use_bias": true, "kernel_initializer": {"class_name": "VarianceScaling", "config": {"scale": 1.0, "mode": "fan_avg", "distribution": "uniform", "seed": null}}, "bias_initializer": {"class_name": "Zeros", "config": {}}, "kernel_regularizer": null, "bias_regularizer": null, "activity_regularizer": null, "kernel_constraint": null, "bias_constraint": null}, "inbound_nodes": [[["lambda_1", 0, 0, {}]]]}, {"name": "conv2d_86", "class_name": "Conv2D", "config": {"name": "conv2d_86", "trainable": true, "filters": 4, "kernel_size": [4, 2], "strides": [1, 1], "padding": "same", "data_format": "channels_last", "dilation_rate": [1, 1], "activation": "relu", "use_bias": true, "kernel_initializer": {"class_name": "VarianceScaling", "config": {"scale": 1.0, "mode": "fan_avg", "distribution": "uniform", "seed": null}}, "bias_initializer": {"class_name": "Zeros", "config": {}}, "kernel_regularizer": null, "bias_regularizer": null, "activity_regularizer": null, "kernel_constraint": null, "bias_constraint": null}, "inbound_nodes": [[["lambda_1", 0, 0, {}]]]}, {"name": "conv2d_87", "class_name": "Conv2D", "config": {"name": "conv2d_87", "trainable": true, "filters": 4, "kernel_size": [3, 3], "strides": [1, 1], "padding": "same", "data_format": "channels_last", "dilation_rate": [1, 1], "activation": "relu", "use_bias": true, "kernel_initializer": {"class_name": "VarianceScaling", "config": {"scale": 1.0, "mode": "fan_avg", "distribution": "uniform", "seed": null}}, "bias_initializer": {"class_name": "Zeros", "config": {}}, "kernel_regularizer": null, "bias_regularizer": null, "activity_regularizer": null, "kernel_constraint": null, "bias_constraint": null}, "inbound_nodes": [[["lambda_1", 0, 0, {}]]]}, {"name": "concatenate_23", "class_name": "Concatenate", "config": {"name": "concatenate_23", "trainable": true, "axis": -1}, "inbound_nodes": [[["conv2d_85", 0, 0, {}], ["conv2d_86", 0, 0, {}], ["conv2d_87", 0, 0, {}]]]}, {"name": "max_pooling2d_29", "class_name": "MaxPooling2D", "config": {"name": "max_pooling2d_29", "trainable": true, "pool_size": [2, 2], "padding": "valid", "strides": [2, 2], "data_format": "channels_last"}, "inbound_nodes": [[["concatenate_23", 0, 0, {}]]]}, {"name": "lambda_2", "class_name": "Lambda", "config": {"name": "lambda_2", "trainable": true, "function": ["4wEAAAAAAAAAAQAAAAUAAABDAAAAcxgAAAB8AHQAoAF8AKEBdACgAnwAoQEYABsAUwApAU4pA9oB\nS9oDbWF42gNtaW4pAdoGaW5wdXRzqQByBQAAAPoePGlweXRob24taW5wdXQtNi0xNTQ1OTc1NjIx\nNWQ+2gpOT1JNQUxJWkVEAQAAAHMCAAAAAAE=\n", null, null], "function_type": "lambda", "output_shape": null, "output_shape_type": "raw", "arguments": {}}, "inbound_nodes": [[["max_pooling2d_29", 0, 0, {}]]]}, {"name": "conv2d_88", "class_name": "Conv2D", "config": {"name": "conv2d_88", "trainable": true, "filters": 8, "kernel_size": [2, 4], "strides": [1, 1], "padding": "same", "data_format": "channels_last", "dilation_rate": [1, 1], "activation": "relu", "use_bias": true, "kernel_initializer": {"class_name": "VarianceScaling", "config": {"scale": 1.0, "mode": "fan_avg", "distribution": "uniform", "seed": null}}, "bias_initializer": {"class_name": "Zeros", "config": {}}, "kernel_regularizer": null, "bias_regularizer": null, "activity_regularizer": null, "kernel_constraint": null, "bias_constraint": null}, "inbound_nodes": [[["lambda_2", 0, 0, {}]]]}, {"name": "conv2d_89", "class_name": "Conv2D", "config": {"name": "conv2d_89", "trainable": true, "filters": 8, "kernel_size": [4, 2], "strides": [1, 1], "padding": "same", "data_format": "channels_last", "dilation_rate": [1, 1], "activation": "relu", "use_bias": true, "kernel_initializer": {"class_name": "VarianceScaling", "config": {"scale": 1.0, "mode": "fan_avg", "distribution": "uniform", "seed": null}}, "bias_initializer": {"class_name": "Zeros", "config": {}}, "kernel_regularizer": null, "bias_regularizer": null, "activity_regularizer": null, "kernel_constraint": null, "bias_constraint": null}, "inbound_nodes": [[["lambda_2", 0, 0, {}]]]}, {"name": "conv2d_90", "class_name": "Conv2D", "config": {"name": "conv2d_90", "trainable": true, "filters": 8, "kernel_size": [3, 3], "strides": [1, 1], "padding": "same", "data_format": "channels_last", "dilation_rate": [1, 1], "activation": "relu", "use_bias": true, "kernel_initializer": {"class_name": "VarianceScaling", "config": {"scale": 1.0, "mode": "fan_avg", "distribution": "uniform", "seed": null}}, "bias_initializer": {"class_name": "Zeros", "config": {}}, "kernel_regularizer": null, "bias_regularizer": null, "activity_regularizer": null, "kernel_constraint": null, "bias_constraint": null}, "inbound_nodes": [[["lambda_2", 0, 0, {}]]]}, {"name": "concatenate_24", "class_name": "Concatenate", "config": {"name": "concatenate_24", "trainable": true, "axis": -1}, "inbound_nodes": [[["conv2d_88", 0, 0, {}], ["conv2d_89", 0, 0, {}], ["conv2d_90", 0, 0, {}]]]}, {"name": "max_pooling2d_30", "class_name": "MaxPooling2D", "config": {"name": "max_pooling2d_30", "trainable": true, "pool_size": [2, 2], "padding": "valid", "strides": [2, 2], "data_format": "channels_last"}, "inbound_nodes": [[["concatenate_24", 0, 0, {}]]]}, {"name": "lambda_3", "class_name": "Lambda", "config": {"name": "lambda_3", "trainable": true, "function": ["4wEAAAAAAAAAAQAAAAUAAABDAAAAcxgAAAB8AHQAoAF8AKEBdACgAnwAoQEYABsAUwApAU4pA9oB\nS9oDbWF42gNtaW4pAdoGaW5wdXRzqQByBQAAAPoePGlweXRob24taW5wdXQtNi0xNTQ1OTc1NjIx\nNWQ+2gpOT1JNQUxJWkVEAQAAAHMCAAAAAAE=\n", null, null], "function_type": "lambda", "output_shape": null, "output_shape_type": "raw", "arguments": {}}, "inbound_nodes": [[["max_pooling2d_30", 0, 0, {}]]]}, {"name": "flatten_10", "class_name": "Flatten", "config": {"name": "flatten_10", "trainable": true, "data_format": "channels_last"}, "inbound_nodes": [[["lambda_3", 0, 0, {}]]]}, {"name": "lambda_4", "class_name": "Lambda", "config": {"name": "lambda_4", "trainable": true, "function": ["4wEAAAAAAAAAAQAAAAUAAABDAAAAcxgAAAB8AHQAoAF8AKEBdACgAnwAoQEYABsAUwApAU4pA9oB\nS9oDbWF42gNtaW4pAdoGaW5wdXRzqQByBQAAAPoePGlweXRob24taW5wdXQtNi0xNTQ1OTc1NjIx\nNWQ+2gpOT1JNQUxJWkVEAQAAAHMCAAAAAAE=\n", null, null], "function_type": "lambda", "output_shape": null, "output_shape_type": "raw", "arguments": {}}, "inbound_nodes": [[["flatten_10", 0, 0, {}]]]}, {"name": "dense_19", "class_name": "Dense", "config": {"name": "dense_19", "trainable": true, "units": 9, "activation": "relu", "use_bias": true, "kernel_initializer": {"class_name": "VarianceScaling", "config": {"scale": 1.0, "mode": "fan_avg", "distribution": "uniform", "seed": null}}, "bias_initializer": {"class_name": "Zeros", "config": {}}, "kernel_regularizer": null, "bias_regularizer": null, "activity_regularizer": null, "kernel_constraint": null, "bias_constraint": null}, "inbound_nodes": [[["lambda_4", 0, 0, {}]]]}, {"name": "dense_20", "class_name": "Dense", "config": {"name": "dense_20", "trainable": true, "units": 10, "activation": "softmax", "use_bias": true, "kernel_initializer": {"class_name": "VarianceScaling", "config": {"scale": 1.0, "mode": "fan_avg", "distribution": "uniform", "seed": null}}, "bias_initializer": {"class_name": "Zeros", "config": {}}, "kernel_regularizer": null, "bias_regularizer": null, "activity_regularizer": null, "kernel_constraint": null, "bias_constraint": null}, "inbound_nodes": [[["dense_19", 0, 0, {}]]]}], "input_layers": [["input_1", 0, 0]], "output_layers": [["dense_20", 0, 0]]}, "keras_version": "2.2.4", "backend": "tensorflow"}