{"class_name": "Model", "config": {"name": "model_13", "layers": [{"name": "input_1", "class_name": "InputLayer", "config": {"batch_input_shape": [null, 28, 28, 1], "dtype": "float32", "sparse": false, "name": "input_1"}, "inbound_nodes": []}, {"name": "conv2d_118", "class_name": "Conv2D", "config": {"name": "conv2d_118", "trainable": true, "batch_input_shape": [null, 28, 28, 1], "dtype": "float32", "filters": 8, "kernel_size": [2, 4], "strides": [1, 1], "padding": "same", "data_format": "channels_last", "dilation_rate": [1, 1], "activation": "relu", "use_bias": true, "kernel_initializer": {"class_name": "VarianceScaling", "config": {"scale": 1.0, "mode": "fan_avg", "distribution": "uniform", "seed": null}}, "bias_initializer": {"class_name": "Zeros", "config": {}}, "kernel_regularizer": null, "bias_regularizer": null, "activity_regularizer": null, "kernel_constraint": null, "bias_constraint": null}, "inbound_nodes": [[["input_1", 0, 0, {}]]]}, {"name": "conv2d_119", "class_name": "Conv2D", "config": {"name": "conv2d_119", "trainable": true, "batch_input_shape": [null, 28, 28, 1], "dtype": "float32", "filters": 8, "kernel_size": [4, 2], "strides": [1, 1], "padding": "same", "data_format": "channels_last", "dilation_rate": [1, 1], "activation": "relu", "use_bias": true, "kernel_initializer": {"class_name": "VarianceScaling", "config": {"scale": 1.0, "mode": "fan_avg", "distribution": "uniform", "seed": null}}, "bias_initializer": {"class_name": "Zeros", "config": {}}, "kernel_regularizer": null, "bias_regularizer": null, "activity_regularizer": null, "kernel_constraint": null, "bias_constraint": null}, "inbound_nodes": [[["input_1", 0, 0, {}]]]}, {"name": "conv2d_120", "class_name": "Conv2D", "config": {"name": "conv2d_120", "trainable": true, "batch_input_shape": [null, 28, 28, 1], "dtype": "float32", "filters": 8, "kernel_size": [3, 3], "strides": [1, 1], "padding": "same", "data_format": "channels_last", "dilation_rate": [1, 1], "activation": "relu", "use_bias": true, "kernel_initializer": {"class_name": "VarianceScaling", "config": {"scale": 1.0, "mode": "fan_avg", "distribution": "uniform", "seed": null}}, "bias_initializer": {"class_name": "Zeros", "config": {}}, "kernel_regularizer": null, "bias_regularizer": null, "activity_regularizer": null, "kernel_constraint": null, "bias_constraint": null}, "inbound_nodes": [[["input_1", 0, 0, {}]]]}, {"name": "concatenate_34", "class_name": "Concatenate", "config": {"name": "concatenate_34", "trainable": true, "axis": -1}, "inbound_nodes": [[["conv2d_118", 0, 0, {}], ["conv2d_119", 0, 0, {}], ["conv2d_120", 0, 0, {}]]]}, {"name": "max_pooling2d_40", "class_name": "MaxPooling2D", "config": {"name": "max_pooling2d_40", "trainable": true, "pool_size": [2, 2], "padding": "valid", "strides": [2, 2], "data_format": "channels_last"}, "inbound_nodes": [[["concatenate_34", 0, 0, {}]]]}, {"name": "lambda_1", "class_name": "Lambda", "config": {"name": "lambda_1", "trainable": true, "function": ["4wEAAAAAAAAAAQAAAAUAAABDAAAAcxgAAAB8AHQAoAF8AKEBdACgAnwAoQEYABsAUwApAU4pA9oB\nS9oDbWF42gNtaW4pAdoGaW5wdXRzqQByBQAAAPoePGlweXRob24taW5wdXQtNi0xNTQ1OTc1NjIx\nNWQ+2gpOT1JNQUxJWkVEAQAAAHMCAAAAAAE=\n", null, null], "function_type": "lambda", "output_shape": null, "output_shape_type": "raw", "arguments": {}}, "inbound_nodes": [[["max_pooling2d_40", 0, 0, {}]]]}, {"name": "conv2d_121", "class_name": "Conv2D", "config": {"name": "conv2d_121", "trainable": true, "filters": 4, "kernel_size": [2, 4], "strides": [1, 1], "padding": "same", "data_format": "channels_last", "dilation_rate": [1, 1], "activation": "relu", "use_bias": true, "kernel_initializer": {"class_name": "VarianceScaling", "config": {"scale": 1.0, "mode": "fan_avg", "distribution": "uniform", "seed": null}}, "bias_initializer": {"class_name": "Zeros", "config": {}}, "kernel_regularizer": null, "bias_regularizer": null, "activity_regularizer": null, "kernel_constraint": null, "bias_constraint": null}, "inbound_nodes": [[["lambda_1", 0, 0, {}]]]}, {"name": "conv2d_122", "class_name": "Conv2D", "config": {"name": "conv2d_122", "trainable": true, "filters": 4, "kernel_size": [4, 2], "strides": [1, 1], "padding": "same", "data_format": "channels_last", "dilation_rate": [1, 1], "activation": "relu", "use_bias": true, "kernel_initializer": {"class_name": "VarianceScaling", "config": {"scale": 1.0, "mode": "fan_avg", "distribution": "uniform", "seed": null}}, "bias_initializer": {"class_name": "Zeros", "config": {}}, "kernel_regularizer": null, "bias_regularizer": null, "activity_regularizer": null, "kernel_constraint": null, "bias_constraint": null}, "inbound_nodes": [[["lambda_1", 0, 0, {}]]]}, {"name": "conv2d_123", "class_name": "Conv2D", "config": {"name": "conv2d_123", "trainable": true, "filters": 4, "kernel_size": [3, 3], "strides": [1, 1], "padding": "same", "data_format": "channels_last", "dilation_rate": [1, 1], "activation": "relu", "use_bias": true, "kernel_initializer": {"class_name": "VarianceScaling", "config": {"scale": 1.0, "mode": "fan_avg", "distribution": "uniform", "seed": null}}, "bias_initializer": {"class_name": "Zeros", "config": {}}, "kernel_regularizer": null, "bias_regularizer": null, "activity_regularizer": null, "kernel_constraint": null, "bias_constraint": null}, "inbound_nodes": [[["lambda_1", 0, 0, {}]]]}, {"name": "concatenate_35", "class_name": "Concatenate", "config": {"name": "concatenate_35", "trainable": true, "axis": -1}, "inbound_nodes": [[["conv2d_121", 0, 0, {}], ["conv2d_122", 0, 0, {}], ["conv2d_123", 0, 0, {}]]]}, {"name": "max_pooling2d_41", "class_name": "MaxPooling2D", "config": {"name": "max_pooling2d_41", "trainable": true, "pool_size": [2, 2], "padding": "valid", "strides": [2, 2], "data_format": "channels_last"}, "inbound_nodes": [[["concatenate_35", 0, 0, {}]]]}, {"name": "lambda_2", "class_name": "Lambda", "config": {"name": "lambda_2", "trainable": true, "function": ["4wEAAAAAAAAAAQAAAAUAAABDAAAAcxgAAAB8AHQAoAF8AKEBdACgAnwAoQEYABsAUwApAU4pA9oB\nS9oDbWF42gNtaW4pAdoGaW5wdXRzqQByBQAAAPoePGlweXRob24taW5wdXQtNi0xNTQ1OTc1NjIx\nNWQ+2gpOT1JNQUxJWkVEAQAAAHMCAAAAAAE=\n", null, null], "function_type": "lambda", "output_shape": null, "output_shape_type": "raw", "arguments": {}}, "inbound_nodes": [[["max_pooling2d_41", 0, 0, {}]]]}, {"name": "conv2d_124", "class_name": "Conv2D", "config": {"name": "conv2d_124", "trainable": true, "filters": 2, "kernel_size": [2, 4], "strides": [1, 1], "padding": "same", "data_format": "channels_last", "dilation_rate": [1, 1], "activation": "relu", "use_bias": true, "kernel_initializer": {"class_name": "VarianceScaling", "config": {"scale": 1.0, "mode": "fan_avg", "distribution": "uniform", "seed": null}}, "bias_initializer": {"class_name": "Zeros", "config": {}}, "kernel_regularizer": null, "bias_regularizer": null, "activity_regularizer": null, "kernel_constraint": null, "bias_constraint": null}, "inbound_nodes": [[["lambda_2", 0, 0, {}]]]}, {"name": "conv2d_125", "class_name": "Conv2D", "config": {"name": "conv2d_125", "trainable": true, "filters": 2, "kernel_size": [4, 2], "strides": [1, 1], "padding": "same", "data_format": "channels_last", "dilation_rate": [1, 1], "activation": "relu", "use_bias": true, "kernel_initializer": {"class_name": "VarianceScaling", "config": {"scale": 1.0, "mode": "fan_avg", "distribution": "uniform", "seed": null}}, "bias_initializer": {"class_name": "Zeros", "config": {}}, "kernel_regularizer": null, "bias_regularizer": null, "activity_regularizer": null, "kernel_constraint": null, "bias_constraint": null}, "inbound_nodes": [[["lambda_2", 0, 0, {}]]]}, {"name": "conv2d_126", "class_name": "Conv2D", "config": {"name": "conv2d_126", "trainable": true, "filters": 2, "kernel_size": [3, 3], "strides": [1, 1], "padding": "same", "data_format": "channels_last", "dilation_rate": [1, 1], "activation": "relu", "use_bias": true, "kernel_initializer": {"class_name": "VarianceScaling", "config": {"scale": 1.0, "mode": "fan_avg", "distribution": "uniform", "seed": null}}, "bias_initializer": {"class_name": "Zeros", "config": {}}, "kernel_regularizer": null, "bias_regularizer": null, "activity_regularizer": null, "kernel_constraint": null, "bias_constraint": null}, "inbound_nodes": [[["lambda_2", 0, 0, {}]]]}, {"name": "concatenate_36", "class_name": "Concatenate", "config": {"name": "concatenate_36", "trainable": true, "axis": -1}, "inbound_nodes": [[["conv2d_124", 0, 0, {}], ["conv2d_125", 0, 0, {}], ["conv2d_126", 0, 0, {}]]]}, {"name": "max_pooling2d_42", "class_name": "MaxPooling2D", "config": {"name": "max_pooling2d_42", "trainable": true, "pool_size": [2, 2], "padding": "valid", "strides": [2, 2], "data_format": "channels_last"}, "inbound_nodes": [[["concatenate_36", 0, 0, {}]]]}, {"name": "lambda_3", "class_name": "Lambda", "config": {"name": "lambda_3", "trainable": true, "function": ["4wEAAAAAAAAAAQAAAAUAAABDAAAAcxgAAAB8AHQAoAF8AKEBdACgAnwAoQEYABsAUwApAU4pA9oB\nS9oDbWF42gNtaW4pAdoGaW5wdXRzqQByBQAAAPoePGlweXRob24taW5wdXQtNi0xNTQ1OTc1NjIx\nNWQ+2gpOT1JNQUxJWkVEAQAAAHMCAAAAAAE=\n", null, null], "function_type": "lambda", "output_shape": null, "output_shape_type": "raw", "arguments": {}}, "inbound_nodes": [[["max_pooling2d_42", 0, 0, {}]]]}, {"name": "flatten_14", "class_name": "Flatten", "config": {"name": "flatten_14", "trainable": true, "data_format": "channels_last"}, "inbound_nodes": [[["lambda_3", 0, 0, {}]]]}, {"name": "lambda_4", "class_name": "Lambda", "config": {"name": "lambda_4", "trainable": true, "function": ["4wEAAAAAAAAAAQAAAAUAAABDAAAAcxgAAAB8AHQAoAF8AKEBdACgAnwAoQEYABsAUwApAU4pA9oB\nS9oDbWF42gNtaW4pAdoGaW5wdXRzqQByBQAAAPoePGlweXRob24taW5wdXQtNi0xNTQ1OTc1NjIx\nNWQ+2gpOT1JNQUxJWkVEAQAAAHMCAAAAAAE=\n", null, null], "function_type": "lambda", "output_shape": null, "output_shape_type": "raw", "arguments": {}}, "inbound_nodes": [[["flatten_14", 0, 0, {}]]]}, {"name": "dense_27", "class_name": "Dense", "config": {"name": "dense_27", "trainable": true, "units": 9, "activation": "relu", "use_bias": true, "kernel_initializer": {"class_name": "VarianceScaling", "config": {"scale": 1.0, "mode": "fan_avg", "distribution": "uniform", "seed": null}}, "bias_initializer": {"class_name": "Zeros", "config": {}}, "kernel_regularizer": null, "bias_regularizer": null, "activity_regularizer": null, "kernel_constraint": null, "bias_constraint": null}, "inbound_nodes": [[["lambda_4", 0, 0, {}]]]}, {"name": "dense_28", "class_name": "Dense", "config": {"name": "dense_28", "trainable": true, "units": 10, "activation": "softmax", "use_bias": true, "kernel_initializer": {"class_name": "VarianceScaling", "config": {"scale": 1.0, "mode": "fan_avg", "distribution": "uniform", "seed": null}}, "bias_initializer": {"class_name": "Zeros", "config": {}}, "kernel_regularizer": null, "bias_regularizer": null, "activity_regularizer": null, "kernel_constraint": null, "bias_constraint": null}, "inbound_nodes": [[["dense_27", 0, 0, {}]]]}], "input_layers": [["input_1", 0, 0]], "output_layers": [["dense_28", 0, 0]]}, "keras_version": "2.2.4", "backend": "tensorflow"}