{"class_name": "Model", "config": {"name": "model_7", "layers": [{"name": "input_1", "class_name": "InputLayer", "config": {"batch_input_shape": [null, 28, 28, 1], "dtype": "float32", "sparse": false, "name": "input_1"}, "inbound_nodes": []}, {"name": "conv2d_64", "class_name": "Conv2D", "config": {"name": "conv2d_64", "trainable": true, "batch_input_shape": [null, 28, 28, 1], "dtype": "float32", "filters": 2, "kernel_size": [2, 4], "strides": [1, 1], "padding": "same", "data_format": "channels_last", "dilation_rate": [1, 1], "activation": "relu", "use_bias": true, "kernel_initializer": {"class_name": "VarianceScaling", "config": {"scale": 1.0, "mode": "fan_avg", "distribution": "uniform", "seed": null}}, "bias_initializer": {"class_name": "Zeros", "config": {}}, "kernel_regularizer": null, "bias_regularizer": null, "activity_regularizer": null, "kernel_constraint": null, "bias_constraint": null}, "inbound_nodes": [[["input_1", 0, 0, {}]]]}, {"name": "conv2d_65", "class_name": "Conv2D", "config": {"name": "conv2d_65", "trainable": true, "batch_input_shape": [null, 28, 28, 1], "dtype": "float32", "filters": 2, "kernel_size": [4, 2], "strides": [1, 1], "padding": "same", "data_format": "channels_last", "dilation_rate": [1, 1], "activation": "relu", "use_bias": true, "kernel_initializer": {"class_name": "VarianceScaling", "config": {"scale": 1.0, "mode": "fan_avg", "distribution": "uniform", "seed": null}}, "bias_initializer": {"class_name": "Zeros", "config": {}}, "kernel_regularizer": null, "bias_regularizer": null, "activity_regularizer": null, "kernel_constraint": null, "bias_constraint": null}, "inbound_nodes": [[["input_1", 0, 0, {}]]]}, {"name": "conv2d_66", "class_name": "Conv2D", "config": {"name": "conv2d_66", "trainable": true, "batch_input_shape": [null, 28, 28, 1], "dtype": "float32", "filters": 2, "kernel_size": [3, 3], "strides": [1, 1], "padding": "same", "data_format": "channels_last", "dilation_rate": [1, 1], "activation": "relu", "use_bias": true, "kernel_initializer": {"class_name": "VarianceScaling", "config": {"scale": 1.0, "mode": "fan_avg", "distribution": "uniform", "seed": null}}, "bias_initializer": {"class_name": "Zeros", "config": {}}, "kernel_regularizer": null, "bias_regularizer": null, "activity_regularizer": null, "kernel_constraint": null, "bias_constraint": null}, "inbound_nodes": [[["input_1", 0, 0, {}]]]}, {"name": "concatenate_16", "class_name": "Concatenate", "config": {"name": "concatenate_16", "trainable": true, "axis": -1}, "inbound_nodes": [[["conv2d_64", 0, 0, {}], ["conv2d_65", 0, 0, {}], ["conv2d_66", 0, 0, {}]]]}, {"name": "max_pooling2d_22", "class_name": "MaxPooling2D", "config": {"name": "max_pooling2d_22", "trainable": true, "pool_size": [2, 2], "padding": "valid", "strides": [2, 2], "data_format": "channels_last"}, "inbound_nodes": [[["concatenate_16", 0, 0, {}]]]}, {"name": "lambda_1", "class_name": "Lambda", "config": {"name": "lambda_1", "trainable": true, "function": ["4wEAAAAAAAAAAQAAAAUAAABDAAAAcxgAAAB8AHQAoAF8AKEBdACgAnwAoQEYABsAUwApAU4pA9oB\nS9oDbWF42gNtaW4pAdoGaW5wdXRzqQByBQAAAPoePGlweXRob24taW5wdXQtNi0xNTQ1OTc1NjIx\nNWQ+2gpOT1JNQUxJWkVEAQAAAHMCAAAAAAE=\n", null, null], "function_type": "lambda", "output_shape": null, "output_shape_type": "raw", "arguments": {}}, "inbound_nodes": [[["max_pooling2d_22", 0, 0, {}]]]}, {"name": "conv2d_67", "class_name": "Conv2D", "config": {"name": "conv2d_67", "trainable": true, "filters": 4, "kernel_size": [2, 4], "strides": [1, 1], "padding": "same", "data_format": "channels_last", "dilation_rate": [1, 1], "activation": "relu", "use_bias": true, "kernel_initializer": {"class_name": "VarianceScaling", "config": {"scale": 1.0, "mode": "fan_avg", "distribution": "uniform", "seed": null}}, "bias_initializer": {"class_name": "Zeros", "config": {}}, "kernel_regularizer": null, "bias_regularizer": null, "activity_regularizer": null, "kernel_constraint": null, "bias_constraint": null}, "inbound_nodes": [[["lambda_1", 0, 0, {}]]]}, {"name": "conv2d_68", "class_name": "Conv2D", "config": {"name": "conv2d_68", "trainable": true, "filters": 4, "kernel_size": [4, 2], "strides": [1, 1], "padding": "same", "data_format": "channels_last", "dilation_rate": [1, 1], "activation": "relu", "use_bias": true, "kernel_initializer": {"class_name": "VarianceScaling", "config": {"scale": 1.0, "mode": "fan_avg", "distribution": "uniform", "seed": null}}, "bias_initializer": {"class_name": "Zeros", "config": {}}, "kernel_regularizer": null, "bias_regularizer": null, "activity_regularizer": null, "kernel_constraint": null, "bias_constraint": null}, "inbound_nodes": [[["lambda_1", 0, 0, {}]]]}, {"name": "conv2d_69", "class_name": "Conv2D", "config": {"name": "conv2d_69", "trainable": true, "filters": 4, "kernel_size": [3, 3], "strides": [1, 1], "padding": "same", "data_format": "channels_last", "dilation_rate": [1, 1], "activation": "relu", "use_bias": true, "kernel_initializer": {"class_name": "VarianceScaling", "config": {"scale": 1.0, "mode": "fan_avg", "distribution": "uniform", "seed": null}}, "bias_initializer": {"class_name": "Zeros", "config": {}}, "kernel_regularizer": null, "bias_regularizer": null, "activity_regularizer": null, "kernel_constraint": null, "bias_constraint": null}, "inbound_nodes": [[["lambda_1", 0, 0, {}]]]}, {"name": "concatenate_17", "class_name": "Concatenate", "config": {"name": "concatenate_17", "trainable": true, "axis": -1}, "inbound_nodes": [[["conv2d_67", 0, 0, {}], ["conv2d_68", 0, 0, {}], ["conv2d_69", 0, 0, {}]]]}, {"name": "max_pooling2d_23", "class_name": "MaxPooling2D", "config": {"name": "max_pooling2d_23", "trainable": true, "pool_size": [2, 2], "padding": "valid", "strides": [2, 2], "data_format": "channels_last"}, "inbound_nodes": [[["concatenate_17", 0, 0, {}]]]}, {"name": "lambda_2", "class_name": "Lambda", "config": {"name": "lambda_2", "trainable": true, "function": ["4wEAAAAAAAAAAQAAAAUAAABDAAAAcxgAAAB8AHQAoAF8AKEBdACgAnwAoQEYABsAUwApAU4pA9oB\nS9oDbWF42gNtaW4pAdoGaW5wdXRzqQByBQAAAPoePGlweXRob24taW5wdXQtNi0xNTQ1OTc1NjIx\nNWQ+2gpOT1JNQUxJWkVEAQAAAHMCAAAAAAE=\n", null, null], "function_type": "lambda", "output_shape": null, "output_shape_type": "raw", "arguments": {}}, "inbound_nodes": [[["max_pooling2d_23", 0, 0, {}]]]}, {"name": "conv2d_70", "class_name": "Conv2D", "config": {"name": "conv2d_70", "trainable": true, "filters": 8, "kernel_size": [2, 4], "strides": [1, 1], "padding": "same", "data_format": "channels_last", "dilation_rate": [1, 1], "activation": "relu", "use_bias": true, "kernel_initializer": {"class_name": "VarianceScaling", "config": {"scale": 1.0, "mode": "fan_avg", "distribution": "uniform", "seed": null}}, "bias_initializer": {"class_name": "Zeros", "config": {}}, "kernel_regularizer": null, "bias_regularizer": null, "activity_regularizer": null, "kernel_constraint": null, "bias_constraint": null}, "inbound_nodes": [[["lambda_2", 0, 0, {}]]]}, {"name": "conv2d_71", "class_name": "Conv2D", "config": {"name": "conv2d_71", "trainable": true, "filters": 8, "kernel_size": [4, 2], "strides": [1, 1], "padding": "same", "data_format": "channels_last", "dilation_rate": [1, 1], "activation": "relu", "use_bias": true, "kernel_initializer": {"class_name": "VarianceScaling", "config": {"scale": 1.0, "mode": "fan_avg", "distribution": "uniform", "seed": null}}, "bias_initializer": {"class_name": "Zeros", "config": {}}, "kernel_regularizer": null, "bias_regularizer": null, "activity_regularizer": null, "kernel_constraint": null, "bias_constraint": null}, "inbound_nodes": [[["lambda_2", 0, 0, {}]]]}, {"name": "conv2d_72", "class_name": "Conv2D", "config": {"name": "conv2d_72", "trainable": true, "filters": 8, "kernel_size": [3, 3], "strides": [1, 1], "padding": "same", "data_format": "channels_last", "dilation_rate": [1, 1], "activation": "relu", "use_bias": true, "kernel_initializer": {"class_name": "VarianceScaling", "config": {"scale": 1.0, "mode": "fan_avg", "distribution": "uniform", "seed": null}}, "bias_initializer": {"class_name": "Zeros", "config": {}}, "kernel_regularizer": null, "bias_regularizer": null, "activity_regularizer": null, "kernel_constraint": null, "bias_constraint": null}, "inbound_nodes": [[["lambda_2", 0, 0, {}]]]}, {"name": "concatenate_18", "class_name": "Concatenate", "config": {"name": "concatenate_18", "trainable": true, "axis": -1}, "inbound_nodes": [[["conv2d_70", 0, 0, {}], ["conv2d_71", 0, 0, {}], ["conv2d_72", 0, 0, {}]]]}, {"name": "max_pooling2d_24", "class_name": "MaxPooling2D", "config": {"name": "max_pooling2d_24", "trainable": true, "pool_size": [2, 2], "padding": "valid", "strides": [2, 2], "data_format": "channels_last"}, "inbound_nodes": [[["concatenate_18", 0, 0, {}]]]}, {"name": "lambda_3", "class_name": "Lambda", "config": {"name": "lambda_3", "trainable": true, "function": ["4wEAAAAAAAAAAQAAAAUAAABDAAAAcxgAAAB8AHQAoAF8AKEBdACgAnwAoQEYABsAUwApAU4pA9oB\nS9oDbWF42gNtaW4pAdoGaW5wdXRzqQByBQAAAPoePGlweXRob24taW5wdXQtNi0xNTQ1OTc1NjIx\nNWQ+2gpOT1JNQUxJWkVEAQAAAHMCAAAAAAE=\n", null, null], "function_type": "lambda", "output_shape": null, "output_shape_type": "raw", "arguments": {}}, "inbound_nodes": [[["max_pooling2d_24", 0, 0, {}]]]}, {"name": "flatten_8", "class_name": "Flatten", "config": {"name": "flatten_8", "trainable": true, "data_format": "channels_last"}, "inbound_nodes": [[["lambda_3", 0, 0, {}]]]}, {"name": "lambda_4", "class_name": "Lambda", "config": {"name": "lambda_4", "trainable": true, "function": ["4wEAAAAAAAAAAQAAAAUAAABDAAAAcxgAAAB8AHQAoAF8AKEBdACgAnwAoQEYABsAUwApAU4pA9oB\nS9oDbWF42gNtaW4pAdoGaW5wdXRzqQByBQAAAPoePGlweXRob24taW5wdXQtNi0xNTQ1OTc1NjIx\nNWQ+2gpOT1JNQUxJWkVEAQAAAHMCAAAAAAE=\n", null, null], "function_type": "lambda", "output_shape": null, "output_shape_type": "raw", "arguments": {}}, "inbound_nodes": [[["flatten_8", 0, 0, {}]]]}, {"name": "dense_15", "class_name": "Dense", "config": {"name": "dense_15", "trainable": true, "units": 9, "activation": "relu", "use_bias": true, "kernel_initializer": {"class_name": "VarianceScaling", "config": {"scale": 1.0, "mode": "fan_avg", "distribution": "uniform", "seed": null}}, "bias_initializer": {"class_name": "Zeros", "config": {}}, "kernel_regularizer": null, "bias_regularizer": null, "activity_regularizer": null, "kernel_constraint": null, "bias_constraint": null}, "inbound_nodes": [[["lambda_4", 0, 0, {}]]]}, {"name": "dense_16", "class_name": "Dense", "config": {"name": "dense_16", "trainable": true, "units": 10, "activation": "softmax", "use_bias": true, "kernel_initializer": {"class_name": "VarianceScaling", "config": {"scale": 1.0, "mode": "fan_avg", "distribution": "uniform", "seed": null}}, "bias_initializer": {"class_name": "Zeros", "config": {}}, "kernel_regularizer": null, "bias_regularizer": null, "activity_regularizer": null, "kernel_constraint": null, "bias_constraint": null}, "inbound_nodes": [[["dense_15", 0, 0, {}]]]}], "input_layers": [["input_1", 0, 0]], "output_layers": [["dense_16", 0, 0]]}, "keras_version": "2.2.4", "backend": "tensorflow"}